…
          &lt;span class="s2"&gt;"input:"&lt;/span&gt;&lt;span class="p"&gt;,&lt;/span&gt; &lt;span class="n"&gt;layer&lt;/span&gt;&lt;span class="o"&gt;.&lt;/span&gt;&lt;span class="n"&gt;input_shape&lt;/span&gt;&lt;span class="p"&gt;,&lt;/span&gt;
          &lt;span class="s2"&gt;"- output:"&lt;/span&gt;&lt;span class="p"&gt;,&lt;/span&gt; &lt;span class="n"&gt;layer&lt;/span&gt;&lt;span class="o"&gt;.&lt;/span&gt;&lt;span class="n"&gt;output_shape&lt;/span&gt;&lt;span class="p"&gt;)&lt;/span&gt;
&lt;/pre&gt;&lt;/div&gt;
&lt;/div&gt;
&lt;/div&gt;
&lt;/div&gt;
&lt;div class="output_wrapper"&gt;
&lt;div class="output"&gt;
&lt;div class="output_area"&gt;
&lt;div class="prompt"&gt;&lt;/div&gt;
&lt;div class="output_subarea output_stream output_stdout output_text"&gt;
&lt;pre&gt;conv1d_13 input: (None, 1000, 100) - output: (None, 996, 100)
max_pooling1d_13 input: (None, 996, 100) - output: (None, 199, 100)
conv1d_14 input: (None, 199, 100) - output: (None, 195, 100)
max_pooling1d_14 input: (None, 195, 100) - output: (None, 39, 100)
conv1d_15 input: (None, 39, 100) - output: (None, 35, 100)
dropout_5 input: (None, 35, 100) - output: (None, 35, 100)
max_pooling1d_15 input: (None, 35, 100) - output: (None, 1, 100)
flatten_5 input: (None, 1, 100) - output: (None, 100)
&lt;/pre&gt;
&lt;/div&gt;
&lt;/div&gt;
&lt;/div&gt;
&lt;/div&gt;
&lt;/div&gt;
&lt;div class="cell border-box-sizing text_cell rendered"&gt;&lt;div class="prompt input_prompt"&gt;
&lt;/div&gt;&lt;div class="inner_cell"&gt;
&lt;div class="text_cell_render border-box-sizing rendered_html"&gt;
&lt;p&gt;Note that to get to the &lt;code&gt;1 x EMBEDDING_DIM&lt;/code&gt; final size, 
…
&lt;span class="n"&gt;model&lt;/span&gt;&lt;span class="o"&gt;.&lt;/span&gt;&lt;span class="n"&gt;summary&lt;/span&gt;&lt;span class="p"&gt;()&lt;/span&gt;
&lt;/pre&gt;&lt;/div&gt;
&lt;/div&gt;
&lt;/div&gt;
&lt;/div&gt;
&lt;div class="output_wrapper"&gt;
&lt;div class="output"&gt;
&lt;div class="output_area"&gt;
&lt;div class="prompt"&gt;&lt;/div&gt;
&lt;div class="output_subarea output_stream output_stdout output_text"&gt;
&lt;pre&gt;_________________________________________________________________
Layer (type)                 Output Shape              Param #   
=================================================================
input_4 (InputLayer)         (None, 1000)              0         
_________________________________________________________________
embedding_3 (Embedding)      (None, 1000, 100)         1000000   
_________________________________________________________________
conv1d_10 (Conv1D)           (None, 996, 100)          50100     
_________________________________________________________________
max_pooling1d_10 (MaxPooling (None, 199, 100)          0         
_________________________________________________________________
conv1d_11 (Conv1D)           (None, 195, 100)          50100     
_________________________________________________________________
max_pooling1d_11 (MaxPooling (None, 39, 100)           0         
_________________________________________________________________
conv1d_12 (Conv1D)           (None, 35, 100)           50100     
_________________________________________________________________
dropout_4 (Dropout)          (None, 35, 100)           0         
_________________________________________________________________
max_pooling1d_12 (MaxPooling (None, 1, 100)            0         
_________________________________________________________________
flatten_4 (Flatten)          (None, 100)               0         
_________________________________________________________________
dense_2 (Dense)              (None, 20)                2020      
=================================================================
Total params: 1,152,320
Trainable params: 1,152,320
Non-trainable params: 0
_________________________________________________________________
&lt;/pre&gt;
&lt;/div&gt;
&lt;/div&gt;
&lt;/div&gt;
&lt;/div&gt;
&lt;/div&gt;
&lt;div class="cell border-box-sizing text_cell rendered"&gt;&lt;div class="prompt input_prompt"&gt;
&lt;/div&gt;&lt;div class="inner_cell"&gt;
…
